Deeplearningmodels/deeplearningapproach.pt (torch, 8212 bytes, 24 tensors)

input.weight f4 [4, 8]
-0.26712567 -0.3419124 0.022809777 -0.19169356 0.0040977094 -0.19383182 -0.16878746 -0.18737878
0.20360002 0.4463678 0.12763672 -0.009074075 -0.007679961 0.2753731 -0.023540867 0.30031732
0.24129248 0.0634386 0.24993542 0.052073695 0.051604196 0.18616696 0.04359487 0.30741277
0.02440949 0.4502664 -0.042591296 -0.0103336945 -0.011077072 0.15260647 -0.0055613024 0.08091123
00000000: b2c4 88be 240f afbe 92db ba3c 514b 44be
00000010: 1446 863b d97b 46be 9fd6 2cbe 39e0 3fbe
00000020: 867c 503e 528a e43e 33b3 023e 6eab 14bc
00000030: 2fa8 fbbb b4fd 8c3e c7d8 c0bc 31c3 993e
00000040: 6015 773e 19ec 813d 12ef 7f3e 3a4b 553d
00000050: ec5e 533d 8da2 3e3e 8990 323d 3565 9d3e
00000060: 69f6 c73c 5189 e63e 3674 2ebd a84e 29bc
00000070: 9b7c 35bc df44 1c3e 963b b6bb c9b4 a53d

input.bias f4 [4]
-0.13764395 -0.124714546 0.021167068 0.048304487
00000000: 89f2 0cbe 576a ffbd 8f66 ad3c edda 453d

hidden1.weight f4 [4, 4]
-0.03176658 -0.35155985 0.06349322 0.20340252 -0.033407047 -0.4024935 -0.43888077 0.03640922
-0.16190006 -0.51403403 0.3170374 0.3412294 -0.22415501 0.5911018 -0.21893834 0.046651606
00000000: ac1d 02bd a7ff b3be bc08 823d c048 503e
00000010: d4d5 08bd a113 cebe fbb4 e0be d621 153d
00000020: 21c9 25be bc97 03bf ba52 a23e 9fb5 ae3e
00000030: e488 65be 7352 173f 5f31 60be c115 3f3d

hidden1.bias f4 [4]
0.39136654 0.3114293 -0.009269144 -0.2978305
00000000: 3261 c83e a973 9f3e 9cdd 17bc 3d7d 98be

bnorm1.weight f4 [4]
0.99947584 1.1276312 0.93858683 0.9451289
00000000: a6dd 7f3f 3856 903f 3a47 703f f8f3 713f

bnorm1.bias f4 [4]
-0.046629664 0.014115691 0.044288795 0.0665378
00000000: bffe 3ebd 8045 673c 2b68 353d f844 883d

bnorm1.running_mean f4 [4]
6e-45 1.4403739 1.428187 0.8045857
00000000: 0400 0000 2c5e b83f d5ce b63f 54f9 4d3f

bnorm1.running_var f4 [4]
6e-45 1.1867282 0.8563771 0.54117113
00000000: 0400 0000 b6e6 973f 883b 5b3f 318a 0a3f

hidden2.weight f4 [4, 4]
-0.31476668 0.6379202 -0.49751657 0.17141189 -0.09960061 -0.36325252 0.11900996 0.3893546
-0.28022093 -0.4743869 0.53935975 -0.11687812 -0.072605565 -0.46467918 -0.11296618 0.13694195
00000000: 1929 a1be bd4e 233f 7eba febe 9986 2f3e
00000010: 68fb cbbd 3cfc b9be 7ebb f33d 7c59 c73e
00000020: 1e79 8fbe d7e2 f2be 7b13 0a3f cc5d efbd
00000030: 3ab2 94bd 6eea edbe d05a e7bd 833a 0c3e

hidden2.bias f4 [4]
0.09994339 0.078379326 -0.33159465 0.36195162
00000000: 1faf cc3d 5785 a03d c6c6 a9be b951 b93e

bnorm2.weight f4 [4]
1.0215684 1.0263838 1.0128024 0.9949536
00000000: c1c2 823f 8b60 833f 82a3 813f 47b5 7e3f

bnorm2.bias f4 [4]
0.098655716 -0.3034101 0.24802734 -0.09145932
00000000: 020c ca3d 9258 9bbe e1fa 7d3e 064f bbbd

bnorm2.running_mean f4 [4]
0.4064488 0.49980116 0.045454897 0.124792516
00000000: 0f1a d03e f0e5 ff3e ea2e 3a3d 3893 ff3d

bnorm2.running_var f4 [4]
0.033672642 0.2777263 0.0029050189 0.066342816
00000000: 53ec 093d 2432 8e3e 2162 3e3b bede 873d

hidden3.weight f4 [4, 4]
-0.53306895 0.035265904 -0.521277 -0.40014258 0.2252965 0.40425032 0.3695995 0.48593146
0.23025551 -0.0805615 0.000540444 0.14604193 0.74610496 -0.26691613 -0.14793518 -0.42848602
00000000: 3577 08bf fb72 103d 6972 05bf 7ddf ccbe
00000010: 20b4 663e e6f9 ce3e 253c bd3e 02cc f83e
00000020: 1ac8 6b3e 6dfd a4bd 95ac 0d3a 048c 153e
00000030: bc00 3f3f 3ba9 88be 527c 17be 8562 dbbe

hidden3.bias f4 [4]
0.43894657 0.4861404 -0.467518 0.4119002
00000000: 9bbd e03e 65e7 f83e 855e efbe 95e4 d23e

bnorm3.weight f4 [4]
1.2323054 0.9671623 1.1080323 1.0663731
00000000: 2fbc 9d3f f397 773f 01d4 8d3f ea7e 883f

bnorm3.bias f4 [4]
-0.18774453 0.071582444 -0.12982482 -0.138502
00000000: 1a40 40be d199 923d ccf0 04be 78d3 0dbe

bnorm3.running_mean f4 [4]
0.14847533 0.3620359 0.23201579 0.5726051
00000000: eb09 183e c55c b93e 8c95 6d3e 3f96 123f

bnorm3.running_var f4 [4]
0.074310586 0.26050153 0.11693632 0.26971167
00000000: 2630 983d 7560 853e 4f7c ef3d a617 8a3e

hidden4.weight f4 [4, 4]
0.20505977 -0.12141299 0.16383207 0.06478168 0.667364 -0.2183968 -0.1471604 -0.26206094
0.07128548 -0.39503467 -0.3266614 -0.32133153 -0.6501179 -0.35656142 -0.3807455 0.78146213
00000000: 30fb 513e 60a7 f8bd 98c3 273e 42ac 843d
00000010: 5ed8 2a3f 69a3 5fbe 37b1 16be da2c 86be
00000020: 1ffe 913d fc41 cabe 2a40 a7be 9185 a4be
00000030: 206e 26bf 388f b6be 13f1 c2be e70d 483f

hidden4.bias f4 [4]
-0.41334558 0.523249 -0.12064701 0.3089938
00000000: 08a2 d3be a5f3 053f c815 f7bd 6f34 9e3e

output.weight f4 [5, 4]
-0.41361102 0.46678972 -0.31409058 1.1120738 0.16704223 0.6557364 0.40798703 -0.14967686
-0.22331266 0.30546066 -0.07266914 -0.15421855 -0.31080887 0.104858615 -0.47322637 0.0059030997
-0.15318242 -0.13332823 0.40511024 0.029671563
00000000: d3c4 d3be 10ff ee3e 7bd0 a0be 6f58 8e3f
00000010: 1e0d 2b3e 57de 273f ade3 d03e e444 19be
00000020: 13ac 64be 5765 9c3e 8fd3 94bd 78eb 1dbe
00000030: 5722 9fbe 1dc0 d63d ba4a f2be ca6e c13b
00000040: dadb 1cbe 3287 08be 9c6a cf3e c711 f33c

output.bias f4 [5]
1.0420365 -0.3983481 -0.07401944 0.08676251 0.27051216
00000000: 7461 853f 48f4 cbbe 8197 97bd 8bb0 b13d
00000010: 9280 8a3e
