Deeplearningmodels/markovchainappoximation.pt (torch, 8212 bytes, 24 tensors)

input.weight f4 [4, 5]
00000000: 079f bd3e 0cac 0f3e b791 03bd 1cc4 813d
00000010: f3be 123e 9907 ba3e 3550 6ebe 8bbc 9dbe
00000020: 1282 5fbe 3615 79be 081f be3e 5873 203d
00000030: 3b44 50be ef19 9a3e be95 a53e 7a56 d5be
00000040: 7444 b4be c4fd c93e 6a55 7bbe 759e 97be
0.3703539 0.14030474 -0.032121386 0.06336233 0.14330654 0.36333922 -0.23272784 -0.3080791
-0.21826962 -0.24324498 0.3713305 0.0391725 -0.20338528 0.3009791 0.32340807 -0.4166754
-0.35208476 0.3945142 -0.24544302 -0.2961308

input.bias f4 [4]
00000000: 4c7b c63e 1394 96be 80cc 20be cdf4 97bd
0.38765943 -0.29409847 -0.1570301 -0.07419739

hidden1.weight f4 [4, 4]
00000000: 2399 123e 863a 95be 1c06 d33e b74e cdbe
00000010: adeb b8be 92e1 223e 6b09 c83e efe5 ae3e
00000020: 99c5 7c3c 2a2c 313d d55d 403c 2f54 913d
00000030: c844 e6bc a948 a7be b4e2 0fbe 4e7b 7bbe
0.1431623 -0.29146212 0.412156 -0.40099117 -0.36117306 0.15906361 0.39069685 0.341598
0.01542797 0.04325501 0.011741121 0.07096135 -0.02810897 -0.32672623 -0.14051324 -0.24558756

hidden1.bias f4 [4]
00000000: bd7f 29bd da76 d93d f8c1 623e f9fb 943d
-0.041381586 0.10618372 0.22144306 0.072746225

bnorm1.weight f4 [4]
00000000: 5e22 803f 87ea 7f3f b0e6 7f3f 88f8 7f3f
1.0010488 0.99967235 0.99961376 0.99988604

bnorm1.bias f4 [4]
00000000: e141 7a39 326b b439 95b4 693a 40a6 8337
0.000238664 0.00034412142 0.00089151534 1.5693833e-05

bnorm1.running_mean f4 [4]
00000000: d11b fd3e 5777 053c 7fc6 f73d 4792 1a3d
0.49435285 0.008146129 0.12098407 0.037737157

bnorm1.running_var f4 [4]
00000000: 853c 403c 4077 023a 0991 a33b 1cb7 2e3c
0.011733179 0.0004976876 0.004991655 0.010663774

hidden2.weight f4 [4, 4]
00000000: 3efa 35bd 9d50 90be 7417 82be caa9 6f3e
00000010: 8a2a 8bbe e202 e13e 662f cfbd 50a4 18be
00000020: 4274 94be 7fdf 803d 4799 d9be ed20 ff3e
00000030: e123 e83e 5067 3bbe 39bb 49be a265 abba
-0.044428103 -0.28186503 -0.25408518 0.23404613 -0.27180892 0.43947512 -0.101164624 -0.1490643
-0.28994948 0.062926285 -0.42499754 0.49829808 0.45339873 -0.1830113 -0.19700326 -0.0013076554

hidden2.bias f4 [4]
00000000: b8d8 c6be a2d1 efbe f1db e0be 28d9 8abe
-0.38837218 -0.46839625 -0.43917802 -0.27118802

bnorm2.weight f4 [4]
00000000: 07bc 7f3f 46dc 7f3f 8cb8 7f3f b6f8 7f3f
0.9989628 0.99945486 0.9989097 0.9998888

bnorm2.bias f4 [4]
00000000: 6cf1 2aba c682 ae3a 17fe 093b f88c d1ba
-0.000652096 0.001331412 0.002105599 -0.0015987447

bnorm2.running_mean f4 [4]
00000000: 8fc7 733e 5d1e 543e dcc9 623e dba9 583e
0.23806594 0.20714708 0.22147316 0.21158545

bnorm2.running_var f4 [4]
00000000: 704e c73c 44fc 493d 2199 cb3b 5a38 b33c
0.024329394 0.049312845 0.0062133227 0.021877456

hidden3.weight f4 [4, 4]
00000000: 456d e83c f5ef b03e 647e 273d d103 b63e
00000010: f81e fabe 0bbe e4bd 1aca e1be ce09 c53e
00000020: d50f 673e 7501 e3be 0d10 2d3e 0ac9 cdbd
00000030: a1be babe 6a29 443d 7e6f 98be 051c 923e
0.028372416 0.34558073 0.04089202 0.35549787 -0.48851752 -0.1116906 -0.44099504 0.38484043
0.22564633 -0.4433705 0.16900654 -0.10048111 -0.36473563 0.047891058 -0.29772562 0.28537002

hidden3.bias f4 [4]
00000000: f269 d33e 11fd 76be 0733 a9be 08cc 9d3d
0.41291767 -0.24119975 -0.33046743 0.077049315

bnorm3.weight f4 [4]
00000000: d5be 803f 53f3 803f 3f4b 803f 2355 843f
1.0058237 1.0074257 1.0022963 1.0338482

bnorm3.bias f4 [4]
00000000: a3c8 b73c 6b36 d8bb a79d 933c f1af eabb
0.022434538 -0.006598284 0.01801951 -0.007162087

bnorm3.running_mean f4 [4]
00000000: bc26 903d 7125 063e 7eab 173e e95f b63d
0.07038638 0.1310022 0.14811513 0.08905012

bnorm3.running_var f4 [4]
00000000: 074e 183d 3a99 033e bc9b 283e de47 733d
0.037183788 0.1285142 0.16465658 0.05939471

hidden4.weight f4 [4, 4]
00000000: 2d3f 0abd e7f1 6c3e fb69 c03e a6d8 d83d
00000010: 2614 d43d 492c f13e 29aa bd3d 7bf5 073f
00000020: a0dd 103d 34a7 79be 70ee b6bd 0cf5 f73e
00000030: eaec 2fbe 7c0d 7a3c 6d19 a9be 5eb9 8c3e
-0.033751655 0.23139153 0.37580857 0.105881974 0.103554055 0.471041 0.09260971 0.5310895
0.035367608 -0.24380189 -0.08932197 0.48429143 -0.1718022 0.015262004 -0.3302721 0.27485174

hidden4.bias f4 [4]
00000000: 89da 72bc 1246 ebbd 14be cabe 27e3 d5bd
-0.014822611 -0.11487974 -0.39598143 -0.104437165

output.weight f4 [5, 4]
00000000: 2cd9 3bbd 6bf2 eabe 2e27 d4be 4e17 d3be
00000010: cffc 5a3e 8a47 e4be a434 14be 2a3b 43bd
00000020: 90d8 373d 72ab 50be b465 83be 7226 55be
00000030: db36 333e 98c8 79bd 5cd8 59be 4cfd cabe
00000040: 122f 33be 18ad b03e ae11 b1be 8a19 b7bd
-0.045861408 -0.45888075 -0.41436142 -0.41228718 0.21385501 -0.4458583 -0.14473206 -0.047663845
0.044884264 -0.20377901 -0.2566353 -0.20815447 0.17501394 -0.060982317 -0.21273941 -0.39646375
-0.17498425 0.3450706 -0.345838 -0.08940418

output.bias f4 [5]
00000000: 45e9 b63f d6ec c2bd 3ee3 f3bd d853 1dbe
00000010: 99ac 5bbe
1.4289938 -0.09517829 -0.119085774 -0.15364015 -0.2145256
